model/checkpoint.pth (torch, 22615 bytes, 6 tensors)

fc1.weight f4 [64, 6]
0.1861066 0.42153922 -0.37194365 -0.26743358 -0.118601836 0.2780383 -0.071968034 0.27866098
0.011842973 0.24383722 0.06852913 -0.083313264 -0.41440976 -0.25528443 -0.22922486 0.1749722
0.3889199 0.32549626 -0.30306277 -0.20730188 0.33792228 0.5111756 0.093313746 0.23949409
0.15446328 0.24806122 0.5408222 -0.34436545 -0.24351971 0.08105768 0.06373557 0.5918011
-0.28364164 -0.11502646 -0.19544092 -0.18674651 -0.25166515 0.35322618 0.2634441 0.39518848
0.2635099 -0.180214 0.13178688 -0.29613534 -0.54197884 -0.15543893 0.3546909 0.287057
-0.20259163 -0.049277663 0.39763346 0.5427264 0.2922057 -0.019291287 0.2737249 -0.24037756
0.07607463 -0.31651717 -0.28295124 -0.21089436 0.21720333 0.21349427 -0.17259115 0.35307813
0.5055159 0.040542327 0.06626424 0.15513238 0.3108295 0.63207173 -0.026632901 -0.056678522
0.16743527 0.36339566 0.41582176 0.571903 0.3440473 -0.29897735 -0.017693518 -0.2903111
-0.27016357 0.5780942 0.57411 -0.37957197 0.07641268 -0.06877351 -0.067181826 -0.18687847
0.1569944 -0.24180691 0.2082596 0.25237146 0.25273234 0.07548961 -0.47835162 -0.25917667
0.15670598 0.05810633 -0.23084728 -0.07767328 0.5973963 0.2828471 -0.035844516 0.042106014
-0.45821717 -0.11909232 -0.43085903 -0.20470281 -0.012463816 0.08901127 -0.12710105 0.4427437
0.010739848 0.42149058 0.23847814 -0.3721986 -0.03654488 0.19294576 0.2833668 0.10498835
0.31364852 0.1723829 -0.15726565 0.1469288 -0.45348927 -0.13727248 -0.10219672 -0.19886321
-0.14281887 -0.33460915 -0.0868406 0.0872657 -0.113106504 0.118572384 0.3174335 0.07073132
0.10618936 0.04900888 0.083330296 0.27651328 0.4226038 0.46477422 0.6455471 0.03862927
-0.36673823 -0.19354123 0.27797842 -0.002646476 -0.20291834 -0.31284547 -0.38206002 -0.3445649
-0.08280775 0.22388583 0.22071582 -0.3937277 0.25465798 -0.31945816 -0.08630788 -0.16553351
-0.07863486 -0.080156565 -0.3663416 -0.35249704 -0.06388247 0.005279541 -0.18545696 0.15378684
-0.37474397 -0.014270701 0.46553898 0.003077855 0.5580749 0.1264753 -0.3839635 0.242762
-0.031573907 -0.19777925 0.31092206 -0.34543574 0.033883672 -0.09908614 0.40458176 0.27213788
0.35465515 0.09562322 -0.13133977 -0.10165949 -0.29975358 0.43677023 0.59345037 0.3260819
-0.17439832 0.095807664 -0.430656 -0.1654698 -0.24121645 0.19055845 -0.24328054 -0.008906841
0.017174244 0.26316625 -0.30860308 -0.28026748 -0.24965674 0.28884304 -0.082025595 0.5210338
0.3737616 0.09644288 0.10949155 0.017555827 0.010013484 -0.20212215 -0.14911 0.12444887
-0.1548592 -0.07182028 0.54799664 -0.28318447 -0.013410285 0.5680524 0.27344567 0.15246122
-0.44477013 0.15647201 -0.32785678 -0.038625482 -0.110413454 -0.016000945 0.07504107 0.5852551
0.35609454 0.45474473 0.43284118 -0.08947707 0.18351832 -0.37392515 -0.27657333 0.259639
0.1702008 0.36146185 -0.04612058 0.21969697 0.4836818 -0.31400698 0.29515558 -0.33758968
0.0056266785 -0.06940904 -0.21501334 0.053958595 0.5576799 0.09575681 -0.20169699 -0.12777512
00000000: bb92 3e3e fdd3 d73e 666f bebe 0eed 88be
00000010: 85e5 f2bd 095b 8e3e fa63 93bd a7ac 8e3e
00000020: 0709 423c 77b0 793e 0059 8c3d 25a0 aabd
00000030: 842d d4be a4b4 82be ecb9 6abe ea2b 333e
00000040: 8220 c73e 72a7 a63e 0b2b 9bbe f246 54be
00000050: 2604 ad3e 67dc 023f 471b bf3d f03d 753e
00000060: 9f2b 1e3e c303 7e3e 5373 0a3f ab50 b0be
00000070: 3b5d 79be 9201 a63d cb87 823d 4780 173f
00000080: 7a39 91be fe92 ebbd aa21 48be 7a3a 3fbe
00000090: 41da 80be 10da b43e 25e2 863e 2556 ca3e
000000a0: c5ea 863e 058a 38be 24f3 063e 0d9f 97be
000000b0: 20bf 0abf 622b 1fbe 0c9a b53e 23f9 923e
000000c0: 2e74 4fbe 60d7 49bd 9d96 cb3e 1ef0 0a3f
000000d0: fc9b 953e c308 9ebc ac25 8c3e 8925 76be
000000e0: 04cd 9b3d 8a0e a2be fcde 90be b1f4 57be
000000f0: 8d6a 5e3e 3e9e 5a3e bcbb 30be a8c6 b43e
00000100: 7d69 013f b60f 263d 8cb5 873d 06db 1e3e
00000110: 0b25 9f3e 74cf 213f 3e2d dabc bd27 68bd
00000120: 2774 2b3e ff0e ba3e 97e6 d43e 3c68 123f
00000130: f826 b03e 8f13 99be fff1 90bc a8a3 94be
00000140: e152 8abe fbfd 133f dff8 123f 4257 c2be
00000150: 407e 9c3d 20d9 8cbd a096 89bd 125d 3fbe
00000160: 24c3 203e 3b9c 77be 0142 553e d536 813e
00000170: 2266 813e 4c9a 9a3d 81ea f4be ceb2 84be
00000180: 8877 203e e700 6e3d 3b63 6cbe 2b13 9fbd
00000190: f7ee 183f 56d1 903e b3d1 12bd 5b77 2c3d
000001a0: 719b eabe ade6 f3bd 8e99 dcbe 9d9d 51be
000001b0: 0935 4cbc 8a4b b63d c726 02be 4daf e23e
000001c0: 30f6 2f3c 9dcd d73e 9d33 743e d190 bebe
000001d0: 16b0 15bd 9393 453e 7415 913e 2204 d73d
000001e0: 8a96 a03e 2585 303e 3f0a 21be 8174 163e
000001f0: bf2f e8be 2891 0cbe 844c d1bd cca2 4bbe
00000200: 1c3f 12be e451 abbe 7cd9 b1bd 5cb8 b23d
00000210: 62a4 e7bd 14d6 f23d a586 a23e 95db 903d
00000220: cf79 d93d 89bd 483d 13a9 aa3d 2693 8d3e
00000230: 865f d83e e3f6 ed3e 9342 253f ba39 1e3d
00000240: 1dc5 bbbe ac2f 46be 3053 8e3e 8070 2dbb
00000250: d3c9 4fbe 482d a0be 5f9d c3be d06a b0be
00000260: 1c97 a9bd 5442 653e 5403 623e ad96 c9be
00000270: 8862 823e 0590 a3be 30c2 b0bd 9e81 29be
00000280: 500b a1bd 2029 a4bd 2091 bbbe 7e7a b4be
00000290: d0d4 82bd 0000 ad3b 6ee8 3dbe 4c7a 1d3e
000002a0: 71de bfbe a9cf 69bc 205b ee3e d7b5 493b
000002b0: ffdd 0e3f be82 013e dd96 c4be 9a96 783e
000002c0: a453 01bd a586 4abe 2d31 9f3e f4dc b0be
000002d0: 9bc9 0a3d aded cabd 5725 cf3e a855 8b3e
000002e0: 5c95 b53e 1bd6 c33d ef7d 06be da32 d0bd
000002f0: 4d79 99be 59a0 df3e 5dec 173f 35f4 a63e
00000300: 7995 32be cf36 c43d f17e dcbe ea70 29be
00000310: 7201 77be c121 433e 891e 79be 00ee 11bc
00000320: 00b1 8c3c babd 863e 3901 9ebe 387f 8fbe
00000330: 04a6 7fbe 3ce3 933e 09fd a7bd 7962 053f
00000340: ae5d bf3e d883 c53d 1b3d e03d 3dd1 8f3c
00000350: 990f 243c 1cf9 4ebe 4bb0 18be 0ddf fe3d
00000360: 6993 1ebe 8316 93bd 8249 0c3f 8efd 90be
00000370: d0b6 5bbc e26b 113f 1201 8c3e cb1e 1c3e
00000380: e9b8 e3be 333a 203e d8dc a7be c135 1ebd
00000390: 7320 e2bd 6a14 83bc 22af 993d 47d3 153f
000003a0: 0652 b63e 4dd4 e83e 5c9d dd3e c13f b7bd
000003b0: 3aec 3b3e 1e73 bfbe 059b 8dbe 67ef 843e
000003c0: 1e49 2e3e 8711 b93e efe8 3cbd 3ef8 603e
000003d0: 24a5 f73e 86c5 a0be a21e 973e 8ed8 acbe
000003e0: 0060 b83b 5426 8ebd 752c 5cbe b003 5d3d
000003f0: 1cc4 0e3f 251c c43d a889 4ebe 7bd7 02be

fc1.bias f4 [64]
0.32169077 0.39974692 0.2351382 0.23696627 0.059186507 0.418888 0.069070786 -0.02341706
-0.24411461 -0.2290749 -0.23558567 0.3643285 0.34159458 -0.050731443 -0.23624758 0.40167546
0.2650608 0.17439584 -0.13620365 0.38286814 0.2981568 -0.3099198 0.508887 0.36104542
-0.14880279 0.22949862 -0.2319622 -0.063978344 0.3491437 0.0013350636 -0.29347643 -0.12196421
-0.047691327 -0.07876286 0.06948914 0.45329934 0.16872257 -0.13542747 0.097347185 0.36331674
0.28143838 -0.37311384 0.11888469 -0.3296014 -0.2862979 0.18836683 -0.28081068 0.23628762
0.36526474 0.1407593 -0.29544845 -0.009012339 0.1525123 -0.20647322 0.23494102 -0.37063622
-0.31046364 -0.3456203 -0.17999798 0.3516402 -0.37911272 0.5036387 -0.08140565 0.18925685
00000000: a7b4 a43e a1ab cc3e 11c8 703e 49a7 723e
00000010: 8d6d 723d 7d78 d63e fc74 8d3d 22d5 bfbc
00000020: 2ef9 79be 9c92 6abe 5f3d 71be 4489 ba3e
00000030: 7ce5 ae3e c6cb 4fbd e3ea 71be 68a8 cd3e
00000040: 0db6 873e d394 323e f878 0bbe 4b07 c43e
00000050: 02a8 983e cfad 9ebe 6b46 023f f2da b83e
00000060: c25f 18be b001 6b3e 8087 6dbe 1407 83bd
00000070: f7c2 b23e 4dfd ae3a 8b42 96be 5fc8 f9bd
00000080: fb57 43bd 6c4e a1bd 5250 8e3d da16 e83e
00000090: 9cc5 2c3e 80ad 0abe f65d c73d a704 ba3e
000000a0: b118 903e c708 bfbe d179 f33d 84c1 a8be
000000b0: a395 92be 3ce3 403e 6bc6 8fbe 62f5 713e
000000c0: fb03 bb3e 3523 103e 0545 97be 7da8 13bc
000000d0: 2f2c 1c3e b76d 53be 6194 703e 08c4 bdbe
000000e0: 17f5 9ebe 25f5 b0be 6451 38be 2f0a b43e
000000f0: 101b c2be 77ee 003f 01b8 a6bd 8ccc 413e

fc2.weight f4 [64, 64]
0.028022122 -0.098220065 -0.09274625 0.11996906 0.4480511 0.1449393 -0.08227047 0.15691522
0.022647282 0.059277058 -0.11502892 -0.007911511 -0.111980796 -0.10364111 0.026966393 0.08084282
0.010280496 -0.31075683 0.021317465 -0.08014273 0.13373694 -0.038564578 0.19183418 0.114304535
0.07187863 -0.014076158 0.043827057 -0.12263286 -0.06700868 0.04339009 -0.016954485 0.001354209
-0.05570031 -0.061913863 -0.13647705 0.10016377 0.065018706 0.15803003 0.06902044 0.40898877
0.0015337274 -0.03864725 0.2181622 0.10928819 0.05527188 -0.071214035 0.10180701 -0.028347237
-0.12398509 0.07370498 0.026290238 0.46140575 -0.08051951 0.29384187 0.072471224 0.07398981
0.12946373 -0.08301252 -0.057068802 0.064302154 0.06944289 0.24085754 0.12136193 0.082662
-0.04252053 -0.06539564 0.03146863 0.025216376 -0.082163766 0.009623713 0.046643168 -0.046382543
0.019612273 -0.030148372 0.02005919 -0.11724076 -0.097595654 -0.085342646 0.11487636 -0.05293055
-0.020633701 -0.06056194 0.09364397 0.09638246 -0.10254398 -0.10133374 -0.11048311 -0.026113592
-0.03186299 -0.08181821 -0.044834018 0.023616359 -0.09496274 0.027697816 -0.057755772 -0.08277377
0.0013668753 0.10278228 -0.10918704 -0.009805471 -0.046095967 0.11302963 -0.1556396 -0.1428775
0.102116436 -0.079086244 0.010250004 -0.010788262 -0.04551644 -0.027918473 0.06382686 -0.024032999
-0.13346751 -0.07379502 -0.042612538 0.051842783 -0.11466758 0.10536701 -0.049824033 -0.022445247
0.073339514 0.038573686 0.08508452 0.050174244 -0.03791924 -0.10297536 -0.025064893 0.0797515
-0.3509316 -0.105458096 0.048702292 0.19304667 -0.65039843 -0.504215 -0.07978838 -0.21157703
0.07973409 -0.063123405 0.088472754 0.06416926 0.12182829 0.32047868 -0.018710464 -0.1984143
-0.061791543 0.1167112 0.11196019 0.11471187 -0.42885414 0.11575197 0.0028797765 0.14579086
-0.10544813 -0.047165424 -0.085970476 0.1183707 -0.0077500464 -0.057069317 0.11220962 0.09271643
-0.12979771 -0.010933936 0.067696966 -0.47123364 -0.14262307 -0.18648933 0.103274345 -0.47989732
0.09764976 0.017697483 -0.37085328 -0.09696655 0.06944512 0.11824994 -0.07221036 -0.07962279
0.0795614 -0.33854666 -0.20739953 -0.6821053 -0.08984327 -0.34565476 0.09208598 0.032475054
0.04868498 0.06810091 0.25872123 -0.012524332 -0.43903193 -0.45128012 -0.36330566 0.058417115
-0.07787399 -0.024666889 0.110282 0.03617146 0.04788135 0.12804201 -0.07894609 0.15487453
-0.092130795 -0.030068561 0.04566268 -0.090531535 0.075299405 -0.044795226 -0.10497144 -0.11605984
-0.0046752063 0.40104723 -0.09222676 0.0005321924 -0.08711135 -0.02710779 0.12536347 -0.116720915
0.013276666 0.11755115 -0.017176524 0.097054765 -0.050006393 0.115976065 -0.15259469 -0.0053642592
-0.21676488 0.040510625 0.035528734 -0.03688322 -0.051286113 -0.028644683 0.07562953 0.08791509
0.080709346 -0.08322652 -0.032363776 0.19780715 0.0574721 0.08222252 -0.16349745 -0.123151526
0.048082378 0.023903074 0.07014833 0.07667106 0.03912597 -0.045439936 -0.018954078 -0.11675605
0.05428516 -0.12456122 0.09650957 -0.031219667 0.124582626 0.007258973 -0.15967673 0.0019226528
00000000: a68e e53c 9a27 c9bd bff1 bdbd 57b2 f53d
00000010: f466 e53e f86a 143e 6c7d a8bd 62ae 203e
00000020: cb86 b93c 80cc 723d 4894 ebbd 489f 01bc
00000030: 3056 e5bd ca41 d4bd a0e8 dc3c ec90 a53d
00000040: 876f 283c 851b 9fbe f7a1 ae3c df21 a4bd
00000050: 56f2 083e e4f5 1dbd 2e70 443e 7f18 ea3d
00000060: 1a35 933d b09f 66bc 0084 333d f026 fbbd
00000070: d93b 89bd cfb9 313d 22e4 8abc b77f b13a
00000080: 0226 64bd 6499 7dbd a4c0 0bbe aa22 cd3d
00000090: 8728 853d a0d2 213e 975a 8d3d fa66 d13e
000000a0: 5a07 c93a 944c 1ebd e965 5f3e 7dd2 df3d
000000b0: c464 623d aad8 91bd 3280 d03d 7738 e8bc
000000c0: e5eb fdbd a3f2 963d a05e d73c 603d ec3e
000000d0: 6ae7 a4bd 7172 963e cb6b 943d f887 973d
000000e0: 2492 043e 7802 aabd fac0 69bd d9b0 833d
000000f0: 1338 8e3d 5ca3 763e 9b8c f83d b24a a93d
00000100: 022a 2ebd 26ee 85bd 40e5 003d 9392 ce3c
00000110: 7a45 a8bd c7ac 1d3c e80c 3f3d 9ffb 3dbd
00000120: eba9 a03c b8f9 f6bc 2c53 a43c ec1b f0bd
00000130: 3be0 c7bd 20c8 aebd 4c44 eb3d b4cd 58bd
00000140: 0208 a9bc cc0f 78bd 69c8 bf3d 2b64 c53d
00000150: 9402 d2bd 1088 cfbd f844 e2bd 2cec d5bc
00000160: c482 02bd 4e90 a7bd e0a3 37bd 1877 c13c
00000170: d37b c2bd 88e6 e23c 5191 6cbd 4b85 a9bd
00000180: b928 b33a 847f d23d 749d dfbd 20a7 20bc
00000190: 20cf 3cbd 147c e73d fd5f 1fbe 7b4e 12be
000001a0: 6c22 d13d f8f7 a1bd a2ef 273c 40c1 30bc
000001b0: 726f 3abd 48b5 e4bc a8b7 823d dae0 c4bc
000001c0: b5ab 08be d821 97bd 7c8a 2ebd 1959 543d
000001d0: d6d6 eabd a9ca d73d 4914 4cbd 18df b7bc
000001e0: 0733 963d 71ff 1d3d cb40 ae3d 8283 4d3d
000001f0: 3451 1bbd bfe4 d2bd e454 cdbc c154 a33d
00000200: 4fad b3be 6afa d7bd 0e7c 473d 07ae 453e
00000210: 8380 26bf 3c14 01bf 1768 a3bd a6a7 58be
00000220: a04b a33d d846 81bd 3431 b53d 2c6b 833d
00000230: 1c81 f93d c815 a43e b046 99bc 1e2d 4bbe
00000240: 2119 7dbd 4806 ef3d 624b e53d 0fee ea3d
00000250: c592 dbbe 5e0f ed3d a2ba 3c3b 334a 153e
00000260: 30f5 d7bd 8830 41bd 4a11 b0bd 566c f23d
00000270: 1af4 fdbb 84c1 69bd 28ce e53d 1de2 bd3d
00000280: b1e9 04be 4024 33bc b5a4 8a3d 8945 f1be
00000290: c80b 12be 0ff7 3ebe 8081 d33d 1ab5 f5be
000002a0: 99fc c73d 50fa 903c 7be0 bdbe 6696 c6bd
000002b0: 3e39 8e3d 062d f23d 06e3 93bd 4611 a3bd
000002c0: 16f1 a23d fd55 adbe 8b60 54be 749e 2ebf
000002d0: c0ff b7bd a9f9 b0be 9397 bc3d 9004 053d
000002e0: e769 473d 7d78 8b3d 1c77 843e db32 4dbc
000002f0: cbc8 e0be 300e e7be 3303 babe c946 6f3d
00000300: 667c 9fbd 3712 cabc 87db e13d 8628 143d
00000310: 3c1f 443d 721d 033e 7dae a1bd 6e97 1e3e
00000320: 12af bcbd 5852 f6bc ca08 3b3d 9968 b9bd
00000330: 9336 9a3d 337b 37bd 44fb d6bd c8b0 edbd
00000340: 7932 99bb 1056 cd3e 62e1 bcbd d482 0b3a
00000350: 6f67 b2bd 2811 debc 485f 003e 600b efbd
00000360: 6086 593c a8be f03d c8b5 8cbc a6c4 c63d
00000370: 81d3 4cbd dc84 ed3d c841 1cbe abc6 afbb
00000380: 9df7 5dbe 78ee 253d 9486 113d dc12 17bd
00000390: 6311 52bd 41a8 eabc a8e3 9a3d d40c b43d
000003a0: f14a a53d aa72 aabd e18f 04bd f58d 4a3e
000003b0: dd67 6b3d 4864 a83d e06b 27be de36 fcbd
000003c0: 07f2 443d 61d0 c33c eda9 8f3d b705 9d3d
000003d0: 8e42 203d 3a1f 3abd 9545 9bbc cc1d efbd
000003e0: 1e5a 5e3d f419 ffbd cfa6 c53d 63c0 ffbc
000003f0: 2d25 ff3d aedc ed3b 4c82 23be 8601 fc3a

fc2.bias f4 [64]
-0.099213585 0.040890813 -0.09252096 -0.097615406 0.09487771 0.014363493 0.09060031 -0.054240588
-0.051117644 0.030800989 0.0036647469 -0.0937286 0.023286568 0.1380672 0.024245856 -0.08488061
-0.08375134 0.07572295 0.106743336 0.047873847 0.04298515 -0.06227243 0.024951514 0.07540832
0.0794696 -0.13476464 -0.0595462 0.15988134 0.14519608 -0.05330772 0.07502061 0.0046090563
0.027425468 -0.111397505 0.10243226 -0.022289604 0.059984453 -0.07390935 0.010173547 -0.091384985
-0.06444897 -0.050048318 0.101087116 0.089934774 -0.11924848 0.13274632 0.1282159 0.0008045286
-0.07795526 0.0039980263 0.13374834 0.055018518 -0.026428852 -0.10436469 -0.07477653 -0.107692786
0.028192608 -0.09450185 -0.06781485 -0.01335787 0.16741188 0.13335282 -0.123905 0.20063995
00000000: 7e30 cbbd 207d 273d a17b bdbd 96ea c7bd
00000010: 3f4f c23d db54 6b3c a88c b93d 612b 5ebd
00000020: bc60 51bd 5b52 fc3c 402c 703b c8f4 bfbd
00000030: 79c3 be3c 7d61 0d3e 3f9f c63c e3d5 adbd
00000040: d385 abbd a214 9b3d 409c da3d 5e17 443d
00000050: 3211 303d 6011 7fbd 1e67 cc3c ad6f 9a3d
00000060: f5c0 a23d beff 09be b7e6 73bd efb7 233e
00000070: 48ae 143e 3259 5abd 68a4 993d 9107 973b
00000080: 60ab e03c 6024 e4bd 01c8 d13d b098 b6bc
00000090: 42b2 753d c95d 97bd f3ae 263c 0d28 bbbd
000000a0: d2fd 83bd 77ff 4cbd c306 cf3d b92f b83d
000000b0: 8c38 f4bd a7ee 073e 074b 033e 00e7 523a
000000c0: 02a7 9fbd e001 833b 53f5 083e 195b 613d
000000d0: 5281 d8bc 28bd d5bd 7024 99bd 098e dcbd
000000e0: 2ff4 e63c 308a c1bd 83e2 8abd f8da 5abc
000000f0: 056e 2b3e a48d 083e e8c1 fdbd 8f74 4d3e

fc3.weight f4 [9, 64]
-0.015032316 0.07308284 -0.003023814 0.18455234 -0.036134657 -0.0980538 -0.14242981 0.041591734
-0.35089746 -0.57430804 0.100780204 0.05819744 -0.12882632 -0.081276596 -0.06605111 0.014237
0.06621095 0.021050468 -0.111084945 -0.06963328 -0.21625605 0.0894809 0.09220077 -0.11685048
0.007101148 0.069054 -0.07086708 -0.15844505 -0.052765567 -0.03579497 -0.012787685 0.010517657
-0.00677494 0.051611558 0.08824866 0.01835467 -6.1858937e-06 -0.029899687 -0.09356088 0.4581674
-0.19338253 -0.051113352 -0.2898362 0.08210077 -0.029031249 -0.16088358 0.094622985 -0.08873828
-0.09228277 -0.02475205 -0.21573871 0.15057299 -0.23580211 0.24549097 -0.11380644 -0.04909328
-0.047456473 0.007706642 0.08534598 -0.03294149 -0.025981845 -0.0016077092 0.18014288 -0.11308132
0.02894825 -0.14152965 -0.26769668 0.059243 -0.07208335 -0.012256162 -0.14885047 0.002025448
-0.10738962 -0.27066556 -0.034073442 -0.11472198 -0.32339618 -0.18248768 -0.117068484 0.07585758
0.028085565 -0.020268217 -0.102924794 -0.030419366 -0.19534823 -0.032941975 -0.041055623 -0.2171673
-0.55628514 -0.116848096 -0.085918374 -0.22921886 -0.011322565 -0.25585935 0.12044148 0.04686843
-0.42634127 0.10356119 -0.02565441 -0.10587314 -0.03108661 0.061776266 -0.26721433 0.16955203
-0.062075004 -0.15484701 -0.021989658 -0.012742626 -0.08386223 -0.010865929 -0.20164457 -0.0014654696
0.041632473 -0.069856 -0.051349267 -0.18890741 0.12624247 0.12923346 -0.017696738 -0.30666947
0.003854856 0.04433866 -0.22959572 -0.0038753334 -0.24695082 -0.21954687 0.022214914 -0.0119807515
-0.008226562 0.015829226 -0.23772529 -0.005718651 -0.11837202 -0.053775676 -0.16914418 0.13113898
-0.21112792 -0.76536036 -0.051638126 -0.071880504 -0.18061206 -0.1556287 -0.24005932 0.068505235
0.2110272 -0.019288346 -0.14040643 -0.05985283 -0.17007656 0.055453643 0.10004832 -0.15148334
-0.29055235 0.09467702 0.082800016 -0.2070085 -0.10706858 -0.27077505 0.07656142 0.097562924
-0.39024153 0.040096685 0.016307648 -0.10754472 0.037146136 0.061335146 -0.11946458 0.029538726
-0.11729273 -0.047242824 -0.069085605 0.14894661 0.041037463 -0.11229549 -0.16574988 -0.049168944
-0.103036135 0.058646813 -0.03077377 0.046026908 0.2396749 0.14083765 0.04254237 -0.122285105
-0.067430794 -0.0066975206 -0.19827904 -0.018977866 -0.21257018 -0.21183676 0.11002842 -0.13640088
0.1755584 0.0060876985 -0.1472422 -0.1375084 -0.24725926 -0.04406452 -0.18555628 0.081628695
-0.029021837 -0.77341866 -0.08419065 -0.04433821 0.06422546 -0.19695382 -0.008346977 0.17800738
-0.030725585 0.06465098 -0.14608596 -0.12113615 -0.16220398 0.11056001 0.056327984 -0.23607644
-0.22095227 0.062606335 0.044682126 -0.1401821 -0.16562515 -0.24489054 -0.026383638 0.045958385
0.029039409 -0.10451031 -0.034375586 0.12477073 -0.116438024 -0.08454675 -0.06703942 0.30375543
-0.31845182 -0.29534292 -0.15637574 0.15972815 -0.07094456 -0.10205044 -0.066555604 -0.044251114
-0.038333178 -0.08390416 -0.07842386 0.045812156 -0.045311723 0.20835762 -0.00828141 -0.23534432
-0.02233176 0.071293354 -0.2163971 -0.106774464 -0.19786593 -0.07918556 0.3856298 -0.1259178
00000000: 1a4a 76bc 75ac 953d 2e2b 46bb 4afb 3c3e
00000010: ef01 14bd 6ed0 c8bd 1fd9 11be 185c 2a3d
00000020: d5a8 b3be da05 13bf da65 ce3d 7060 6e3d
00000030: 0ceb 03be 5874 a6bd ce45 87bd 4e42 693c
00000040: 9b99 873d 0872 ac3c 8180 e3bd e59b 8ebd
00000050: 3a72 5dbe c341 b73d c2d3 bc3d 4e4f efbd
00000060: bfb0 e83b 2f6c 8d3d c222 91bd 6b3f 22be
00000070: b520 58bd bf9d 12bd 7083 51bc 4052 2c3c
00000080: 5100 debb a466 533d b7bb b43d 885c 963c
00000090: 6c90 cfb6 30f0 f4bc d99c bfbd eb94 ea3e
000000a0: 1206 46be 3c5c 51bd 6965 94be 7324 a83d
000000b0: f1d2 edbc aabe 24be b2c9 c13d 6abc b5bd
000000c0: c0fe bcbd d0c4 cabc 9cea 5cbe ce2f 1a3e
000000d0: 1c76 71be fc61 7b3e 5a13 e9bd 0916 49bd
000000e0: b861 42bd 0088 fc3b e0c9 ae3d a8ed 06bd
000000f0: e1d7 d4bc c5b9 d2ba 6077 383e 2e97 e7bd
00000100: e124 ed3c 26ed 10be 8a0f 89be caa8 723d
00000110: 6fa0 93bd 12ce 48bc 426c 18be 61bd 043b
00000120: 17ef dbbd ad94 8abe 9890 0bbd 5cf3 eabd
00000130: 2f94 a5be 0dde 3abe 9ac1 efbd 385b 9b3d
00000140: b313 e63c 8809 a6bc 3cca d2bd 0932 f9bc
00000150: 5e09 48be 2aee 06bd f129 28bd 1b61 5ebe
00000160: b468 0ebf 0e4e efbd f9f5 afbd 59b8 6abe
00000170: 4882 39bc ffff 82be 06aa f63d 1cf9 3f3d
00000180: 6749 dabe e417 d43d 3229 d2bc 04d4 d8bd
00000190: 59a9 febc 1c09 7d3d 51d0 88be 0c9f 2d3e
000001a0: 5c42 7ebd 3790 1ebe a823 b4bc 72c6 50bc
000001b0: f6bf abbd 0207 32bc ea7b 4ebe 0015 c0ba
000001c0: d086 2a3d aa10 8fbd 9c53 52bd f270 41be
000001d0: b545 013e c755 043e c0f8 90bc c803 9dbe
000001e0: c0a1 7c3b 749c 353d 241b 6bbe 4ef9 7dbb
000001f0: ade0 7cbe e5d0 60be 0dfc b53c ea4a 44bc
00000200: b4c8 06bc 4bac 813c 426e 73be 8663 bbbb
00000210: 086d f2bd e243 5cbd 2234 2dbe 4c49 063e
00000220: eb31 58be a8ee 43bf 8082 53bd 1636 93bd
00000230: 5ef2 38be 215d 1fbe 1cd2 75be 794c 8c3d
00000240: 8417 583e 9802 9ebc b4c6 0fbe 3e28 75bd
00000250: 8d28 2ebe 5c23 633d 22e6 cc3d 731e 1bbe
00000260: 47c3 94be 07e6 c13d 0e93 a93d 09fa 53be
00000270: c646 dbbd 07a3 8abe 3ccc 9c3d 12cf c73d
00000280: bdcd c7be 6c3c 243d 9e97 853c 6840 dcbd
00000290: 8c26 183d 903a 7b3d d9a9 f4bd 33fb f13c
000002a0: 2c37 f0bd b181 41bd c17c 8dbd 7685 183e
000002b0: e616 283d 2efb e5bd 56ba 29be 6065 49bd
000002c0: 9c04 d3bd a437 703d 4619 fcbc b686 3c3d
000002d0: 566d 753e bf37 103e e840 2e3d 9d70 fabd
000002e0: 2819 8abd e076 dbbb a909 4bbe 7877 9bbc
000002f0: ffab 59be bceb 58be 9556 e13d acac 0bbe
00000300: 95c5 333e 517b c73b a9c6 16be 01cf 0cbe
00000310: 8831 7dbe 007d 34bd 7702 3ebe f22c a73d
00000320: 34bf edbc c4fe 45bf 266c acbd fc9b 35bd
00000330: a388 833d 43ae 49be c2c1 08bc 9147 363e
00000340: 39b4 fbbc bc67 843d 8f97 15be 3b16 f8bd
00000350: cd18 26be 496d e23d 2cb8 663d 06be 71be
00000360: 5041 62be c037 803d 9b04 373d e58b 0fbe
00000370: a499 29be 96c4 7abe 8022 d8bc dc3e 3c3d
00000380: 0ee4 ed3c 8009 d6bd 6acd 0cbd cc87 ff3d
00000390: 0f77 eebd d926 adbd f74b 89bd d585 9b3e
000003a0: 1e0c a3be 3037 97be f620 20be c78f 233e
000003b0: 624b 91bd d2ff d0bd 4e4e 88bd a840 35bd
000003c0: 4003 1dbd f2d5 abbd b09c a0bd 87a5 3b3d
000003d0: c998 39bd b35b 553e c0ae 07bc 1afe 70be
000003e0: 18f1 b6bc 4002 923d 3497 5dbe 92ac dabd
000003f0: 5e9d 4abe 0a2c a2bd 4571 c53e 99f0 00be

fc3.bias f4 [9]
-0.22923672 -0.21351777 -0.019557223 -0.09322942 -0.074283436 0.0038875677 -0.1613282 -0.009759221
0.027009428
00000000: 08bd 6abe 67a4 5abe 7836 a0bc 11ef bebd
00000010: ea21 98bd 90c6 7e3b 3833 25be 24e5 1fbc
00000020: e042 dd3c
