model\checkpoint.pth (torch, 22615 bytes, 6 tensors)

fc1.weight f4 [64, 6]
0	0xbe6898eb	-0.22714584
1	0xbeadeb2b	-0.3396848
2	0xbf49fa14	-0.78897214
3	0xbfd61b24	-1.6727033
4	0xbf157f23	-0.5839712
5	0x3f0c4a5f	0.5480098
6	0xbf5fa4ed	-0.8736103
7	0xbf6e1f63	-0.9301664
8	0xbd50866b	-0.05090944
9	0xbf4ad9f9	-0.7923885
10	0xbf94a38e	-1.1612413
11	0x3e2a465d	0.16628404
12	0xbfe62846	-1.798104
13	0xbf010039	-0.50390965
14	0x3d79e8df	0.0610131
15	0x3f3189d8	0.6935096
16	0x3eb4a456	0.35281628
17	0xbe640df8	-0.22270954
18	0xbfb32bbb	-1.399772
19	0xbfbdecf2	-1.4837935
20	0x3ea3a6ec	0.3196329
21	0xbec7c9bb	-0.39021096
22	0xbf2a79e1	-0.6659222
23	0x3ed8e9fe	0.42366022
24	0x3e8f0d8f	0.27940032
25	0xbd8fab73	-0.07015123
26	0x3faa6c5e	1.3314321
27	0xbe44c65f	-0.19216298
28	0xbfe218d8	-1.7663832
29	0x3e28998a	0.1646482
30	0xbf74863b	-0.9551732
31	0x3f3dec82	0.7418901
32	0xbea4d28e	-0.3219189
33	0xbf8c2c75	-1.0951067
34	0x3ed901d9	0.42384222
35	0xbf2c1f8e	-0.6723565
36	0xbf906662	-1.1281245
37	0xbf2887bd	-0.6583212
38	0x3f696a8c	0.911782
39	0xbfd17bc8	-1.63659
40	0xbf3262a1	-0.69681746
41	0xbe196cbd	-0.14982887
42	0xbf7d64ac	-0.9898174
43	0xbf9c53df	-1.2213095
44	0xbdd13a43	-0.10216191
45	0xbedb2478	-0.4280126
46	0x3db78bc5	0.08962206
47	0x3e1dc99b	0.15408938
48	0xbd883d18	-0.06652278
49	0xbfc1d6e1	-1.5143701
50	0x3ec26915	0.37970796
51	0x3f47b94a	0.78017104
52	0x3e162a50	0.14664578
53	0x3e2e345a	0.17012158
54	0x3e996660	0.29960918
55	0xbf8a6a9f	-1.0813788
56	0x3e8f18e3	0.27948675
57	0x3d96abe9	0.07357008
58	0x3e0ce852	0.13760498
59	0xbe391396	-0.18073878
60	0xbfe0d2f5	-1.7564379
61	0xbeda7f7e	-0.42675394
62	0x3e86dbab	0.26339468
63	0xbe8d4e5e	-0.27598852
64	0x3d8d25cb	0.06891974
65	0xbf346556	-0.70467126
66	0x3ddb3586	0.10703568
67	0xbf796b78	-0.9742961
68	0xbc5fae40	-0.013652384
69	0x3f1e5b0f	0.61857694
70	0xbf35ff2f	-0.71092504
71	0xbce4901a	-0.027900744
72	0xbf8d719d	-1.1050297
73	0xbf64b430	-0.89337444
74	0x3dadd73c	0.08488318
75	0xbf91571d	-1.135471
76	0xbe57ee46	-0.21086988
77	0x3e8efdbd	0.27927962
78	0xbee8971e	-0.45427793
79	0xbf915d69	-1.1356632
80	0x3d640bac	0.055675194
81	0x3e87948d	0.26480523
82	0x3fa9176a	1.321027
83	0xbf2753d7	-0.65362304
84	0xbf1cb856	-0.61218774
85	0xbf86e657	-1.0539044
86	0xbe3d57c6	-0.18490514
87	0xbf681d8e	-0.90670097
88	0xbf46029a	-0.7734772
89	0xbee617f4	-0.4494015
90	0xbe8e8053	-0.2783228
91	0xbeb35be0	-0.35031033
92	0x3e32752f	0.17427514
93	0x3e5a662d	0.2132804
94	0xbf2d2a5e	-0.6764277
95	0xbf861073	-1.047377
96	0xbf56dbbb	-0.8392903
97	0xbfa0870c	-1.2541213
98	0xbdc60f9c	-0.09670946
99	0xc01ded76	-2.4676185
100	0xbe4b528c	-0.19855708
101	0x3ea1f89b	0.31634983
102	0xbee8d361	-0.4547377
103	0xbf90adba	-1.1303017
104	0xbd5761a9	-0.05258337
105	0x3ec8f331	0.3924804
106	0xbfb34723	-1.4006084
107	0xbfa21a41	-1.2664262
108	0xbf1c3f6c	-0.61034274
109	0xbe763cbe	-0.24046609
110	0xbf0811a9	-0.5315195
111	0x3e36e85f	0.1786208
112	0xbe7a9edd	-0.24474664
113	0x3f927c26	1.1444137
114	0x3eca7098	0.39539027
115	0xbfa55ad2	-1.2918341
116	0xbcf9b815	-0.030483285
117	0xbf2be2c9	-0.6714292
118	0x3f417669	0.75571305
119	0x3e942253	0.28932437
120	0xbcecaae0	-0.028890073
121	0x3f688b3b	0.9083745
122	0xbf87cee4	-1.0610013
123	0xbd73c7ba	-0.059516646
124	0xbeb69129	-0.35657623
125	0xbec64525	-0.38724628
126	0xbf045216	-0.51687753
127	0xbbb50e00	-0.0055253506
128	0xbf2c801b	-0.67382973
129	0x3ed74f03	0.4205247
130	0x3e90c6a7	0.2827656
131	0x3f0d0e58	0.5510001
132	0xbf0ba2b8	-0.54545164
133	0xbe48f1e8	-0.1962353
134	0x3eadba46	0.33931178
135	0xbe1cd2ee	-0.15314838
136	0x3e3c69f2	0.1839979
137	0x3d837b95	0.06420056
138	0xbfa21883	-1.266373
139	0xbf63d615	-0.8899854
140	0x3ef16db5	0.47154012
141	0xbf8657f9	-1.0495597
142	0xbdea3945	-0.114367045
143	0x3c9ca2cd	0.019120598
144	0xbf13f335	-0.5779298
145	0x3deee357	0.116644554
146	0x3f7c1465	0.9846862
147	0x3f546c3a	0.8297764
148	0xbe9d6e4c	-0.30748212
149	0x3e758ee0	0.23980284
150	0xbfc26cd1	-1.5189458
151	0xbf9bc6fb	-1.2170099
152	0xbdb18831	-0.086685546
153	0xbf5f4737	-0.8721804
154	0xbef9481c	-0.48687828
155	0xbf238abb	-0.6388356
156	0x3dbd9610	0.09257138
157	0xbf96a1cd	-1.1768128
158	0xbf295e3a	-0.66159403
159	0xbd8d9c8b	-0.06914624
160	0x3db67ff5	0.089111246
161	0x3ee4eb85	0.44710937
162	0xbf4b853e	-0.79500186
163	0xbfab5b13	-1.3387169
164	0xbd8f8fd0	-0.07009852
165	0xbef0b0f5	-0.47010008
166	0xbf6c31fd	-0.92263776
167	0x3f3b458d	0.73153
168	0xbf71c522	-0.94441426
169	0xbde9ac25	-0.11409787
170	0x3e1c02e4	0.15235478
171	0x3f051958	0.51991796
172	0x3f233180	0.63747406
173	0xbed0b39c	-0.4076203
174	0xc0076fb5	-2.116193
175	0xbf2ec364	-0.6826689
176	0x3da2dc8e	0.07952224
177	0xbfb40cfc	-1.4066463
178	0xbec192a6	-0.37807196
179	0xbec27953	-0.37983188
180	0xbef216d4	-0.4728304
181	0xbfa56e65	-1.2924315
182	0xbd851f7a	-0.06500144
183	0x3f1d5661	0.6145993
184	0x3f2c0c76	0.67206514
185	0x3dbcd63a	0.09220548
186	0xbfbb8c3a	-1.4652169
187	0xbf72679d	-0.9468935
188	0x3d869fad	0.065734245
189	0x3d5fb535	0.054616172
190	0x3f32ae0e	0.69796836
191	0x3f24cdb4	0.6437638
192	0xbdfd40b0	-0.12365854
193	0xbda551c7	-0.080722384
194	0xbdcef018	-0.10104388
195	0x3e63fb1d	0.22263761
196	0xbe049015	-0.12945588
197	0xbde166f6	-0.11005966
198	0xbf425c15	-0.75921756
199	0xbf6cbc15	-0.9247449
200	0x3f02f51c	0.5115526
201	0xbe46de0c	-0.19420642
202	0xbf35e151	-0.7104693
203	0xbddf9796	-0.109175846
204	0xbfa5b1f5	-1.2944933
205	0xbe3dc8c6	-0.1853362
206	0xbec59218	-0.38588023
207	0x3f7969b0	0.9742689
208	0x3dae1408	0.084999144
209	0x3e869280	0.26283646
210	0x3e2eca09	0.17069258
211	0x3dea2852	0.11433472
212	0x3d2ecd21	0.042676095
213	0xbeb8381a	-0.35980302
214	0x3a866a8a	0.001025514
215	0xbcb5ddb5	-0.022200445
216	0xbf280bf6	-0.6564325
217	0xbe69aad1	-0.22819068
218	0xbcc80cd1	-0.024420174
219	0x3e874355	0.26418558
220	0xbeaeebca	-0.34164268
221	0x3fc2d4e1	1.5221215
222	0xbebc60ce	-0.36792606
223	0xbf0e03b6	-0.5547441
224	0xbf62ccda	-0.8859383
225	0xbf03f058	-0.5153861
226	0xbf85e2dd	-1.0459858
227	0x3dc880f5	0.097902216
228	0xbf6fcf6b	-0.9367587
229	0xbf5d8b69	-0.8654085
230	0xbd90b846	-0.07066397
231	0xbdb9c4e8	-0.0907076
232	0x3d70d010	0.058792174
233	0x3f1ca8f6	0.61195314
234	0x3f4441db	0.7666299
235	0x3eabeba3	0.33578214
236	0x3e46b205	0.19403847
237	0xbed34b55	-0.4126841
238	0xbd53424b	-0.051576894
239	0x3dc3fb6f	0.095694415
240	0xbac0576d	-0.0014674492
241	0xbf92aa73	-1.1458267
242	0x3dda8235	0.10669366
243	0xbe2a6153	-0.16638689
244	0x3eaababc	0.33345592
245	0xbe004790	-0.12527299
246	0x3ea5662e	0.3230452
247	0xbf958d46	-1.1683738
248	0xbe0dd4a1	-0.13850643
249	0x3d8b2338	0.06793827
250	0x3f1b8fe1	0.60766417
251	0xbf25c3eb	-0.6475207
252	0x3f196455	0.5991872
253	0xbe958c74	-0.2920872
254	0xbf20e956	-0.6285604
255	0xbef5b753	-0.47991428

fc1.bias f4 [64]
0	0x3f0dcc15	0.5538953
1	0x3f0655e0	0.52474785
2	0x3f2262c1	0.63431937
3	0xbf1a90ab	-0.60376996
4	0x3dd12330	0.102117896
5	0x3feeeb1e	1.8665502
6	0xbec41c81	-0.38302997
7	0xbf767d32	-0.9628478
8	0x3a98f65c	0.00116701
9	0x3ec4ca4d	0.38435593
10	0x3f472786	0.7779468
11	0x3ffc97d1	1.9733831
12	0x3f91e093	1.139666
13	0x3f302602	0.68807995
14	0xbfb5a3c5	-1.4190603
15	0x3fc07859	1.5036727
16	0x3e87f827	0.26556513
17	0xbe4731df	-0.19452618
18	0x3e661b12	0.22471264
19	0x3fbea1f0	1.4893169
20	0x3fedcedb	1.8578752
21	0xbe427d58	-0.18993127
22	0x3fefd444	1.8736653
23	0x3f6347fa	0.887817
24	0xbf00b936	-0.5028261
25	0xbf08c503	-0.53425616
26	0xbf89076e	-1.0705392
27	0xbf0c844d	-0.54889375
28	0x3f811211	1.0083638
29	0xbfb83dbc	-1.439384
30	0xbe6fd3c4	-0.23420626
31	0xbe9f3aae	-0.31099457
32	0xbf8fc937	-1.1233281
33	0xbf7e8f79	-0.9943767
34	0xbd8a40a0	-0.067506075
35	0x4005ab5f	2.0885847
36	0xbf6dead7	-0.9293646
37	0xbfbf2174	-1.4932084
38	0x3f19695b	0.59926385
39	0x40139705	2.3060925
40	0x3f70fe1a	0.9413773
41	0xbe2748fd	-0.16336437
42	0x3fac0c65	1.3441283
43	0xbe637f8a	-0.22216621
44	0x3ee84ad1	0.4536958
45	0xbe54342d	-0.20723028
46	0xbf3402ba	-0.7031666
47	0x3fc7a7f6	1.5598133
48	0x3f1d62e9	0.6147905
49	0xbfb9cc21	-1.451542
50	0xbfa77fac	-1.3085837
51	0x3f65c0b1	0.8974715
52	0x3ddb9f6d	0.107237674
53	0xbf8fc9d3	-1.1233467
54	0x3faa4fe7	1.3305634
55	0xbe4d805f	-0.20068501
56	0x3d79f8dc	0.061028346
57	0xbeba8f56	-0.36437482
58	0x3e60dbdb	0.21958868
59	0x3f79b33f	0.9753913
60	0xbeb17320	-0.34658146
61	0x3fd58a9a	1.6682923
62	0xbebc3dbd	-0.36765853
63	0x3fc6cfde	1.5532186

fc2.weight f4 [64, 64]
0	0x3e6818d7	0.22665726
1	0xbf24723c	-0.6423681
2	0xc017d025	-2.3720791
3	0x3f6e493e	0.9308051
4	0xbfb74444	-1.4317708
5	0xbff4c6f2	-1.9123213
6	0xc0136c6d	-2.3034928
7	0x3ede297b	0.43391022
8	0x3e59b52e	0.21260521
9	0xc00a4fdf	-2.161125
10	0xc01288cb	-2.2895992
11	0xbebf471f	-0.3735895
12	0xbeba37c4	-0.3637067
13	0x3f625d88	0.8842397
14	0xc01d18ea	-2.4546456
15	0xbf0b026f	-0.5430059
16	0xbe80d6f3	-0.25163993
17	0xc0b0398b	-5.5070243
18	0x3e14f481	0.14546396
19	0x3f45d841	0.772831
20	0xbd5a01e3	-0.053224456
21	0x3f089bbf	0.5336265
22	0x3f95370e	1.1657426
23	0xbfd030f8	-1.6264944
24	0x3df63d63	0.12023427
25	0xc0681573	-3.6263092
26	0x3e971b1e	0.29512876
27	0x3e4510ef	0.19244741
28	0xc032fcce	-2.79668
29	0xc0a75ec1	-5.2303166
30	0x3ffe8ea0	1.9887276
31	0xbf851b92	-1.0399039
32	0xbee36ab5	-0.44417349
33	0xbfe5229a	-1.7901185
34	0xbec2b1c7	-0.38026258
35	0x3f6a4fd0	0.91528034
36	0x3f8ac530	1.0841427
37	0x394c0265	0.00019455848
38	0x3eca8ae5	0.39559093
39	0x3fc93844	1.5720296
40	0xbe316af3	-0.17325954
41	0xbff39ea4	-1.9032788
42	0x3ef1b949	0.47211674
43	0x4007f9af	2.1246145
44	0xbf89e0dc	-1.0771747
45	0xc0f1d89a	-7.5576906
46	0xbe7d2496	-0.24720988
47	0xc039a7da	-2.9008698
48	0xc0349b96	-2.8219962
49	0x3f91da17	1.1394681
50	0xbf228413	-0.6348278
51	0xbf926d1c	-1.1439548
52	0x3f43176e	0.76207626
53	0xbd469f2a	-0.048491634
54	0xc091318e	-4.537299
55	0xc09c67c9	-4.887669
56	0xbf464e12	-0.77462876
57	0xbfc0fe6d	-1.5077645
58	0xc0800ff3	-4.001947
59	0xbf73987b	-0.9515454
60	0x3ec409c4	0.382887
61	0xbec74a09	-0.38923672
62	0xbf56d8d6	-0.83924615
63	0x3e640373	0.22266941
64	0xbd56cd2c	-0.05244176
65	0xbd9cfc34	-0.076652914
66	0x3d00e540	0.03146863
67	0x3cd19e73	0.02558825
68	0xbda85365	-0.08219031
69	0x3a80225e	0.0009775867
70	0x3d3e829f	0.04651129
71	0xbd755fa6	-0.05990567
72	0x3ca3a916	0.019978087
73	0xbcf6f9b8	-0.030148372
74	0x3c004d47	0.007830924
75	0xbdf27b75	-0.11839954
76	0xbdcf9c3d	-0.10137222
77	0xbdb70207	-0.089359336
78	0x3deb444c	0.11487636
79	0xbd584bb6	-0.05280658
80	0xbd030770	-0.031989515
81	0xbd780fcc	-0.06056194
82	0x3da4d194	0.08047786
83	0x3daa84b2	0.08326091
84	0xbde7eaef	-0.11324107
85	0xbdcf8810	-0.10133374
86	0xbde24996	-0.11049192
87	0xbce25473	-0.02762816
88	0xbd0282c4	-0.03186299
89	0xbda7904e	-0.08181821
90	0xbd37a3e0	-0.044834018
91	0x3cc17718	0.023616359
92	0xbdc19baa	-0.09453519
93	0x3ce2e688	0.027697816
94	0xbd6bc861	-0.057564143
95	0xbdc417f5	-0.09574882
96	0x3aad722d	0.001323288
97	0x3dd27f84	0.10278228
98	0xbdf93bd2	-0.12169613
99	0xbca65f16	-0.020309012
100	0xbd3ccf20	-0.046095967
101	0x3dd4af2c	0.10384974
102	0xbe2adf8d	-0.1668684
103	0xbe12abd1	-0.14323355
104	0x3dba77f4	0.091049105
105	0xbda1f7f8	-0.079086244
106	0x3a1f5068	0.000607735
107	0xbc30c140	-0.010788262
108	0xbd3daa47	-0.046304967
109	0xbce4b548	-0.027918473
110	0x3d5201ba	0.051271178
111	0xbd078363	-0.033084285
112	0xbe15e275	-0.14637168
113	0xbd9721d8	-0.07379502
114	0xbd2e8a7c	-0.042612538
115	0x3d63802f	0.055542167
116	0xbdeb6803	-0.11494448
117	0x3dc9940a	0.09842689
118	0xbd61fb55	-0.05517133
119	0xbcb7df18	-0.022445247
120	0x3d913a9e	0.070912585
121	0x3cde33df	0.027124343
122	0x3da85fe5	0.082214154
123	0x3d1dfec8	0.038573056
124	0xbd5b6e49	-0.053571973
125	0xbde8b697	-0.11362951
126	0xbd1a453f	-0.037663694
127	0x3d97bc3e	0.07408951
128	0x3df7fac6	0.12108378
129	0x3f79c7f3	0.97570723
130	0x3fa004d0	1.2501469
131	0x3dccce3a	0.10000272
132	0xbd8b367b	-0.06797501
133	0xbe9c11a7	-0.30482218
134	0x3d9c39d6	0.07628219
135	0x3edcab8d	0.43099633
136	0xbe89a1ff	-0.26881406
137	0x3cccf118	0.025017306
138	0xbf3c7533	-0.7361633
139	0x3e711bc2	0.23545745
140	0x3e38c43c	0.18043607
141	0x3f71dd5d	0.944784
142	0x3fbc2221	1.4697915
143	0x3c99d39f	0.018777667
144	0x3f03750f	0.5135049
145	0xbf56b688	-0.8387227
146	0x3fae29f8	1.3606558
147	0x3f9feca0	1.2494087
148	0xbef9d746	-0.48797053
149	0x3c7285a2	0.014802368
150	0x3f10d8ee	0.5658101
151	0x3e86dcad	0.26340237
152	0xbfb493da	-1.4107621
153	0xbf155ca7	-0.583445
154	0xbfb484a1	-1.4102975
155	0x3f24716f	0.64235586
156	0x3d168b74	0.036754087
157	0xbee6f9c5	-0.45112434
158	0x3f12b4af	0.5730695
159	0xbf96180b	-1.1726087
160	0x3f0c07a1	0.5469914
161	0x3ed0d8e4	0.40790474
162	0x3f38f37c	0.7224653
163	0x3dbee541	0.093210705
164	0xbf8456f4	-1.0339036
165	0xbfd0152e	-1.6256464
166	0x3f2cb593	0.6746456
167	0xbccc772d	-0.024959171
168	0x3fa9dd50	1.3270664
169	0x3fee50e2	1.8618433
170	0xbfdc3102	-1.7202456
171	0xbe914a34	-0.28376925
172	0x3fd0d721	1.6315652
173	0x3dd18e20	0.10232186
174	0x3f56effc	0.8395994
175	0x3eab7955	0.33491006
176	0xbd4c8d38	-0.049939364
177	0xbe8f51bd	-0.2799205
178	0x3fc8fc7d	1.5702053
179	0xbf4f0718	-0.808702
180	0x3f357ea4	0.70896363
181	0xc0138cdb	-2.3054721
182	0x3e70ae66	0.23504028
183	0x3ef2446d	0.4731783
184	0xbfa14488	-1.2599039
185	0x3f1d6c9e	0.6149386
186	0xbf008d19	-0.502153
187	0xbe9c0754	-0.3047434
188	0x3eda4c23	0.42636213
189	0xbe586989	-0.21134008
190	0x3de0bcb6	0.10973494
191	0x3f2caee3	0.67454356
192	0xbf137ca5	-0.5761207
193	0xbeda3c44	-0.42624104
194	0x3ebd2122	0.3693934
195	0x3fe4dd04	1.7879949
196	0xbfa15433	-1.260382
197	0x3e63a76d	0.22231837
198	0xbd17b6a5	-0.037039418
199	0x3e68f242	0.22748664
200	0xbdd5ad7a	-0.10433479
201	0xbfe883ef	-1.8165263
202	0x3fcd706b	1.6049932
203	0xbf44c03a	-0.76855814
204	0xbde4ff2f	-0.11181485
205	0x3f5b325f	0.85623735
206	0xbf56b2cb	-0.83866566
207	0x3edd5f76	0.43236893
208	0xbf4e006b	-0.8046939
209	0x3f71ef9a	0.9450623
210	0xc0432767	-3.04928
211	0xbf9198d1	-1.1374761
212	0xbd9a31c3	-0.075290225
213	0xbca447a1	-0.020053687
214	0x3e74f081	0.2391987
215	0xbf919192	-1.137255
216	0xbf410fb6	-0.754146
217	0xbfc0add9	-1.5053054
218	0x3f53509c	0.82544875
219	0x3d8fdb77	0.070242815
220	0x3fa5f90c	1.2966628
221	0xbefe0bf0	-0.49618483
222	0xbfbe0805	-1.4846197
223	0xbeeecca7	-0.46640512
224	0x3fb92029	1.446294
225	0xbfb54b84	-1.416367
226	0x3f18dbc8	0.5971036
227	0xbeafac39	-0.34311083
228	0xbfaae3bd	-1.335075
229	0x3f720857	0.94543976
230	0x3f97151f	1.1803321
231	0xbeaa6a11	-0.33284047
232	0x3de77b97	0.1130287
233	0xbd5ffeb3	-0.05468626
234	0x3e427b16	0.18992266
235	0x3f2b4459	0.66901165
236	0xbef16990	-0.4715085
237	0x3f2c0f69	0.67211014
238	0xbfcffcf4	-1.624907
239	0x3e62f8ea	0.22165266
240	0x3f4a0ab5	0.7892259
241	0xbb8523a7	-0.004063088
242	0xbf6f66b3	-0.9351608
243	0x3f5a9331	0.85380846
244	0x3d9324a7	0.07184725
245	0xbf8c43c6	-1.0958183
246	0x3e4013a7	0.18757497
247	0xbf6d7aa3	-0.92765254
248	0xbf086d0e	-0.53291404
249	0xbf0ac4aa	-0.54206336
250	0x3eb701e3	0.35743627
251	0xc025b7ce	-2.5893435
252	0xbfbfb7f9	-1.4978019
253	0xb995b707	-0.0002855586
254	0x3e976f4b	0.29577097
255	0xbf5c5e03	-0.8608095

fc2.bias f4 [64]
0	0x4022b8a2	2.542519
1	0x3d065ce3	0.032803427
2	0xbf005e1e	-0.5014361
3	0x3d94de0d	0.07268915
4	0x3fef48b6	1.8694065
5	0xbe94cd6b	-0.2906297
6	0xbe7ab176	-0.24481758
7	0x400634c0	2.0969696
8	0x3e01541b	0.1262974
9	0xbf1e0b0a	-0.61735594
10	0xbd1d1fa3	-0.03836025
11	0xbe24cfb8	-0.16094863
12	0x4037d993	2.8726547
13	0x3fe1ad60	1.7631035
14	0xbf066998	-0.52504873
15	0xbe04a469	-0.12953342
16	0xbfa2bbeb	-1.2713598
17	0x3d3798c1	0.04482341
18	0xbec87489	-0.3915141
19	0x400487a2	2.0707784
20	0x3fb200b1	1.3906461
21	0xbdd1e138	-0.10248035
22	0xbcfeba02	-0.031094555
23	0xbdb8ef76	-0.090300485
24	0x3edf7ecb	0.43651423
25	0xbe236be6	-0.15959129
26	0xbdb0a2c0	-0.08624792
27	0x401dd66a	2.4662118
28	0x4019c299	2.4025023
29	0xbdbf61ff	-0.09344863
30	0xbf177942	-0.591694
31	0xbca0b71b	-0.019618561
32	0xbd900f44	-0.07034162
33	0xbf336796	-0.70079935
34	0xbf11d281	-0.5696183
35	0xbe919225	-0.28431812
36	0xbed1998c	-0.4093746
37	0xbecab7c6	-0.39593333
38	0x3fab7a02	1.3396609
39	0xbe3afa58	-0.18259561
40	0x3f962e50	1.1732883
41	0x3d1ea2f8	0.038729638
42	0x40148f27	2.3212373
43	0x3d143074	0.03617902
44	0xbf391faf	-0.7231397
45	0x401eba2d	2.4801133
46	0xbcc9bf37	-0.024627311
47	0xbf197a5c	-0.5995233
48	0xbdc02dc8	-0.09383732
49	0xbd32c240	-0.043642282
50	0x40081843	2.1264808
51	0xbf99657e	-1.1984098
52	0x3ec49e79	0.38402155
53	0xbf94d75e	-1.1628225
54	0xbec0836e	-0.37600273
55	0xbe6414ea	-0.22273603
56	0xbc87a41a	-0.016557742
57	0xbf39d036	-0.7258333
58	0xbf11c5c2	-0.5694238
59	0xbed9637e	-0.4245872
60	0x3f8efe00	1.1171265
61	0xbf04329d	-0.5163973
62	0xbfc9acbc	-1.5755839
63	0x40210f88	2.516573

fc3.weight f4 [9, 64]
0	0xbf4aaac2	-0.79166806
1	0x3d95a5df	0.07307028
2	0x408a8522	4.3287516
3	0x40604a42	3.5045323
4	0xbee0759a	-0.43839723
5	0x4000ee37	2.0145395
6	0x3f516705	0.8179782
7	0xbfc3cd87	-1.5297097
8	0x3ff66e2d	1.9252373
9	0x409ea50a	4.9576464
10	0x3daddf63	0.08489873
11	0x3d583e3d	0.05279373
12	0xbf7a57a8	-0.9779
13	0xbea08727	-0.31353113
14	0x3f5b17e5	0.85583335
15	0x3da96ede	0.08273099
16	0x40791a01	3.8922122
17	0xbce7212b	-0.028214058
18	0x4015061a	2.3284974
19	0xbf27f957	-0.6561484
20	0x3d20147d	0.03908204
21	0x3f2d8514	0.67781186
22	0x3d9ba65e	0.076000914
23	0x40319935	2.774976
24	0x4048575e	3.1303325
25	0x3dabcaf1	0.083883174
26	0xbd911f36	-0.07086031
27	0xbf19a1fc	-0.60012794
28	0xbf347afe	-0.7050017
29	0x3e0ef50b	0.13960664
30	0x3f7ad7f3	0.9798576
31	0x3cd823c3	0.02638424
32	0x3dde45f3	0.108531855
33	0x405e3247	3.4718187
34	0x3fa41118	1.2817717
35	0x3f407b46	0.751881
36	0x3fe57c7c	1.7928615
37	0x4019675d	2.3969338
38	0x3e09789b	0.13424914
39	0x3db75a93	0.089528225
40	0xbdef86b5	-0.11695615
41	0x408350df	4.103622
42	0xbf1061be	-0.5639914
43	0x3c2517da	0.010076487
44	0x409278b7	4.5772357
45	0xbf269d6e	-0.6508397
46	0x406f541e	3.739509
47	0x3f634878	0.88782454
48	0xbdbcfec0	-0.09228277
49	0xbccac4d0	-0.02475205
50	0xbf163f17	-0.5869002
51	0x4027f204	2.6241465
52	0x406c58f9	3.6929305
53	0x400d5a5d	2.2086403
54	0x40366659	2.8499968
55	0x3ef7a6e7	0.48369524
56	0xbd4261b8	-0.047456473
57	0x40605a94	3.5055285
58	0x40b93cfb	5.788694
59	0x407ccc01	3.9499514
60	0x3f641fa5	0.89110786
61	0x40b7f07d	5.7481065
62	0x40209404	2.5090342
63	0xbf3921e3	-0.7231733
64	0xbf5928f7	-0.8482813
65	0xbe10e6e8	-0.14150584
66	0x4098ec62	4.7788553
67	0x4073076c	3.797328
68	0xbef59d6a	-0.4797166
69	0x40181d30	2.3767815
70	0x3efa36c0	0.48869896
71	0xbfbd2ce3	-1.4779323
72	0x40405af3	3.005551
73	0x409e669c	4.9500256
74	0xbd0b9098	-0.034073442
75	0xbe054247	-0.13013564
76	0xbf9550cd	-1.1665283
77	0xbed041f1	-0.4067531
78	0x3f0acada	0.54215777
79	0x3dc83aba	0.09776826
80	0x40724c3a	3.7859025
81	0xbc5e1870	-0.013555631
82	0x401d20da	2.45513
83	0xbf111413	-0.56671256
84	0x3e99ede8	0.3006432
85	0x3ea7888f	0.32721373
86	0xbcfc2070	-0.030777186
87	0x40464ead	3.098552
88	0x40227f27	2.5390108
89	0xbd9c5672	-0.07633676
90	0xbdaffbfe	-0.085929856
91	0xbf1c69ff	-0.6109924
92	0xbf1ee8fd	-0.6207426
93	0xbe68971a	-0.2271389
94	0x3faa9a66	1.3328369
95	0x3d3ff91c	0.04686843
96	0xbdb31607	-0.08744436
97	0x4057d687	3.3724687
98	0x3fbd3a86	1.4783485
99	0x3fb780cf	1.4336184
100	0x3fc9fb6a	1.577985
101	0x3fe36f45	1.7768332
102	0x3e0f29c3	0.13980775
103	0x3e03e3e5	0.12879904
104	0x3edd495a	0.43220025
105	0x408e1609	4.44019
106	0xbece875d	-0.4033765
107	0xbd3170ab	-0.04332034
108	0x4082b3f8	4.084469
109	0xbf0dd75f	-0.55406755
110	0x4080ced3	4.025247
111	0x3ff4dc0a	1.912965
112	0x3d2a86d0	0.041632473
113	0xbd8f10aa	-0.069856
114	0xbf0d7e1f	-0.5527057
115	0x405bde7f	3.435455
116	0x4060081f	3.5004957
117	0x3fb43a00	1.40802
118	0x402548e4	2.582574
119	0x3d888b0b	0.06667145
120	0x3b7ca1c0	0.003854856
121	0x406d395f	3.7066267
122	0x40afa171	5.488457
123	0x40712c5f	3.7683332
124	0x3e64f2ac	0.22358197
125	0x40b9d1a4	5.806841
126	0x4035de0c	2.8416777
127	0xbf3007bc	-0.687618
128	0xbf1790e1	-0.5920544
129	0x3c81a8a7	0.01582749
130	0x408d23e0	4.4106293
131	0x405f5056	3.4892783
132	0xbefd0ec3	-0.49425325
133	0x403dd028	2.9658298
134	0x3d9c7f49	0.07641465
135	0xbfcce34f	-1.6006869
136	0x40294d0a	2.645327
137	0x40973e84	4.7263813
138	0xbd538280	-0.051638126
139	0xbd949c63	-0.07256391
140	0xbf721f18	-0.94578695
141	0xbea8a5b4	-0.3293892
142	0x3f5a4372	0.85259163
143	0x3c96e9c0	0.018422008
144	0x407d66db	3.9594028
145	0xbd5c859e	-0.053838365
146	0x40014199	2.0196288
147	0xbf0cb8b5	-0.5496934
148	0xbdfa9b8f	-0.12236702
149	0x3fd28a7c	1.6448512
150	0x3da8dbdf	0.08245062
151	0x4050017b	3.2500904
152	0x4025d28f	2.5909765
153	0x3dc28c61	0.094994314
154	0x3d8918cf	0.06694185
155	0xbf377a93	-0.7167141
156	0xbf3aba53	-0.7294056
157	0xbded76e0	-0.11594939
158	0x3fd218d4	1.6413827
159	0x3dc7cf12	0.097562924
160	0xbd9ab283	-0.0755358
161	0x4056145a	3.3449922
162	0x3fc59e81	1.5438997
163	0x3f75f4eb	0.9607684
164	0x3fca7ab4	1.5818696
165	0x400731d0	2.1124153
166	0x3f36e763	0.7144682
167	0x3d94d0c4	0.072663814
168	0x3f8c705f	1.0971793
169	0x4093a5a2	4.613969
170	0xbedb3eaf	-0.4282126
171	0x3cc46475	0.023973683
172	0x40243a00	2.56604
173	0xbf41fcfe	-0.7577666
174	0x4048974d	3.1342347
175	0x3fbbcc9b	1.4671816
176	0xbdd3049c	-0.103036135
177	0x3d7037a4	0.058646813
178	0xbf13106b	-0.57446927
179	0x4089d288	4.3069496
180	0x40556384	3.334199
181	0x3fb90ddc	1.4457355
182	0x4006447a	2.0979295
183	0x3f0d8ed1	0.55296046
184	0xbd533548	-0.051564485
185	0x40655605	3.5833752
186	0x40c30f57	6.0956225
187	0x40878649	4.235142
188	0x3ee07772	0.4384113
189	0x408e177a	4.440366
190	0x40435b06	3.0524306
191	0xbf54df46	-0.8315319
192	0xbf2473d6	-0.6423925
193	0x3b6ac721	0.0035824256
194	0x408d086b	4.4072776
195	0x40714527	3.7698457
196	0xbf0f55fe	-0.5599059
197	0x40441e04	3.064332
198	0x3e8e0c93	0.27743968
199	0xbfcb91a3	-1.590382
200	0x4001acce	2.0261722
201	0x409b087e	4.8447866
202	0xbdac6c26	-0.08419065
203	0xbd34de4d	-0.044157315
204	0xbf737456	-0.9509939
205	0xbec2913d	-0.38001433
206	0x3f9a92a2	1.2075999
207	0x3d3f6dc8	0.046735555
208	0x407e6fab	3.9755657
209	0x3dfa1a0a	0.12211998
210	0x3f7fe5e0	0.99960136
211	0xbf292d00	-0.6608429
212	0xbdbb99a0	-0.09160161
213	0x3f8625b4	1.0480256
214	0x3dc9223e	0.09820984
215	0x40418200	3.0235596
216	0x40159918	2.337469
217	0x3c9c0a8f	0.019048003
218	0x3d370bd7	0.044689026
219	0xbf22ef80	-0.636467
220	0xbf419e30	-0.75632
221	0xbe24bee9	-0.16088451
222	0x40012c12	2.0183148
223	0x3cf6633d	0.030076617
224	0xbcef3a8a	-0.029202718
225	0x4026c8a4	2.6059961
226	0x3fa7a8ca	1.3098385
227	0x3fb96ead	1.44869
228	0x3fe2bd97	1.7714108
229	0x400f8d44	2.2429972
230	0x3ec0c622	0.37651163
231	0x3e06c671	0.13161637
232	0x3e890571	0.26761964
233	0x4085965d	4.174605
234	0xbf2c4e60	-0.6730709
235	0x3e0508ad	0.12991591
236	0x40828d79	4.0797696
237	0xbf2dd7a4	-0.67907166
238	0x40251887	2.579622
239	0x3ffc41e6	1.9707611
240	0xbd1d0340	-0.038333178
241	0xbd570a46	-0.052500032
242	0xbedf9b60	-0.4367323
243	0x40170555	2.3597004
244	0x404e38e8	3.2222233
245	0x3fc6cba6	1.5530899
246	0x400f98a9	2.2436926
247	0x3dcdf107	0.10055738
248	0xbbd353c9	-0.006449197
249	0x4081fb81	4.061951
250	0x40bbe5f0	5.8718185
251	0x4096b7c6	4.7099333
252	0x3f4749ad	0.77846795
253	0x40aa26d5	5.31724
254	0x3fa9845f	1.3243521
255	0xbf3e1367	-0.74248356

fc3.bias f4 [9]
0	0xbfda5a23	-1.7058758
1	0xbfdd2c1b	-1.7279085
2	0xbfd821d1	-1.688532
3	0xbff916d5	-1.9460093
4	0xbfc24800	-1.5178223
5	0xbfd983c6	-1.6993339
6	0xbfef4f11	-1.8696004
7	0xc02c0622	-2.6878743
8	0xc00bf759	-2.186972
